Neural Network Models/feedback_model.tflite (tflite, 566556 bytes, 12 tensors)

dense_5/bias f4 [6]
-0.102210686 -0.09221923 -0.7769718 -0.035248216 -0.13259271 -0.10594868
00000000: d653 d1bd 70dd bcbd a0e7 46bf 6f60 10bd
00000010: 62c6 07be 9ffb d8bd

dense_4/bias f4 [34]
-0.06596214 -0.02603473 0.08840088 0.12639785 0.03369772 -0.032864098 -0.0452859 -0.012990427
0.046290006 0.087589405 0.083698966 -0.06328611 0.026492078 -0.10661698 -0.11107211 0.07428244
0.035172764 -0.047324672 -0.007386963 -0.0027017335 0.0054730377 0.0114692915 0.10718389 -0.016121175
0.09709162 -0.08148967 0.008831539 -0.026069308 -0.022279227 -0.006868776 0.04212984 0.053571034
0.048320573 0.016756462
00000000: 2917 87bd c946 d5bc 850b b53d 706e 013e
00000010: 9f06 0a3d 819c 06bd b57d 39bd cdd5 54bc
00000020: 979a 3d3d 1362 b33d 5d6a ab3d 269c 81bd
00000030: ea05 d93c 015a dabd c679 e3bd 6421 983d
00000040: 5111 103d 84d7 41bd 560e f2bb 910f 31bb
00000050: 2b57 b33b b2e9 3b3c 3a83 db3d 8e10 84bc
00000060: f9d7 c63d 0ee4 a6bd 29b2 103c 4d8f d5bc
00000070: ed82 b6bc 7813 e1bb 5790 2c3d 4d6d 5b3d
00000080: cbeb 453d d944 893c

dense_3/bias f4 [102]
-0.11452905 0.027935496 -0.07883778 -0.07182534 -0.050559394 0.037136022 0.033283334 0.007197364
0.030094184 0.001803805 0.09613242 -0.005837443 0.0042136163 -0.01576979 -0.020627555 0.12051971
0.026317157 0.103730366 -0.08225127 0.10601286 0.036557525 0.07831718 -0.04945522 -0.093941234
0.00034492588 -0.07476476 0.011049722 -0.0061937138 -0.0010252624 0.019156814 -0.032985996 -0.00647567
0.016203564 -0.029110407 0.048338752 0.049200606 0.02015172 0.05810158 -0.098143615 0.064218275
-0.008386503 0.039988592 0.03320723 -0.051044825 -0.12709466 0.03646775 -0.052435867 0.06876247
0.09701631 0.03985377 0.03577544 0.047893982 0.03861149 0.10362659 0.118855506 -0.06979729
-0.00036911396 0.002909025 0.02677689 -0.091329284 0.03280772 -0.017821163 -0.030518146 -0.056820348
0.06249436 0.009290789 0.038247757 -0.07815408 -0.026756434 -0.07152636 0.05801604 0.034171335
0.04941652 0.012583657 -0.023221243 0.07000694 -0.02445718 0.026849864 -0.024701504 -0.086159796
-0.027216256 0.012056513 -0.06829776 0.012176483 -0.099110134 0.045425147 -0.017747026 -0.022329498
-0.04714737 -0.031511463 0.0508343 -0.011531351 0.023358924 -0.043384768 0.038580008 -0.031672925
-0.0694626 -0.030382242 0.069984496 0.101383954 0.035905924 -0.09633171
00000000: 358e eabd fbd8 e43c b475 a1bd 2a19 93bd
00000010: 5e17 4fbd f11b 183d 1b54 083d ddd7 eb3b
00000020: 1488 f63c a76d ec3a 13e1 c43d 0548 bfbb
00000030: 6012 8a3b a62f 81bc 1efb a8bc 0ad3 f63d
00000040: 1497 d73c 9670 d43d 5b73 a8bd 451d d93d
00000050: 58bd 153d c264 a03d 8f91 4abd 4364 c0bd
00000060: 2bd7 b439 441e 99bd e509 353c a3f4 cabb
00000070: 1962 86ba c0ee 9c3c 531c 07bd db31 d4bb
00000080: 56bd 843c f378 eebc dbfe 453d 9386 493d
00000090: 3815 a53c ecfb 6d3d 85ff c8bd df84 833d
000000a0: 8b67 09bc 14cb 233d 4e04 083d 6114 51bd
000000b0: 1a25 02be 355f 153d fec6 56bd 56d3 8c3d
000000c0: 7db0 c63d b53d 233d 4589 123d 7b2c 443d
000000d0: 1527 1e3d 2d3a d43d 846a f33d e2f1 8ebd
000000e0: a385 c1b9 57a5 3e3b 355b db3c d90a bbbd
000000f0: 6361 063d b0fd 91bc 3101 fabc 74bc 68bd
00000100: 16fa 7f3d 6538 183c aea9 1c3d 3f0f a0bd
00000110: 4f30 dbbc 6a7c 92bd 3aa2 6d3d 3ef7 0b3d
00000120: fa68 4a3d af2b 4e3c 7a3a bebc cc5f 8f3d
00000130: 6d5a c8bc 3ff4 db3c cf5a cabc 8c74 b0bd
00000140: a0f4 debc ae88 453c b2df 8bbd df7f 473c
00000150: 41fa cabd b80f 3a3d 3662 91bc 5aec b6bc
00000160: 9a1d 41bd 2a12 01bd a137 503d feed 3cbc
00000170: 375b bf3c 3ab4 31bd 1206 1e3d 78bb 01bd
00000180: 6842 8ebd 2ee4 f8bc 0854 8f3d 64a2 cf3d
00000190: 1712 133d 8f49 c5bd

dense_2/bias f4 [170]
-0.09393466 0.032926444 -0.053399824 -0.00017126839 -0.04020968 -0.035468724 -0.0025994158 -0.020570043
-0.0029314794 0.0161054 0.008338695 -0.04001632 0.09679559 0.025938185 -0.011291437 -0.037662596
-0.093563825 -0.051897675 -0.007814656 0.008709332 0.07891121 0.023419043 -0.15216291 -0.092598446
-0.04839494 -0.15735233 -0.014694332 -0.10123149 -0.0036186227 -0.07250771 0.0667944 0.005542089
-0.0065726954 -0.03302534 0.041470896 -0.009477222 -0.035750702 0.026762065 -0.06519927 -0.06686691
-0.06171543 0.016838249 -0.017374475 -0.09971732 -0.048025254 0.006453881 -0.020452412 -0.026228918
-0.017332638 -0.091308996 -0.06363167 -0.07786155 0.04405157 -0.014863195 0.01683094 0.020404276
-0.03143924 0.0075311945 -0.08964084 0.051925287 -0.08474331 -0.00029018987 0.01919405 0.0023757045
-0.07215281 0.014589521 -0.016632574 0.0057207914 -0.0263873 0.04720174 -0.00043558035 -0.14131786
0.019841952 -0.09468706 0.019179445 -0.0005144136 -0.015732273 -0.0206185 -0.02825164 -0.07722562
0.08609625 -0.0032643625 -0.19955304 -0.08082416 -0.08086623 -0.003693434 -0.06044388 0.0010029421
-0.08569346 -0.055333465 0.038246427 -0.06330354 -0.024053443 -0.048999842 -0.045510452 0.024213493
-0.06850371 -0.007535758 0.08853572 -0.10355821 0.06740624 -0.021227865 -0.02553571 0.004347637
0.015438776 -0.014322278 -0.065208696 -0.016130352 -0.05793886 -0.01747098 -0.049201593 0.028681068
-0.02956664 -0.02219755 0.009819352 0.090086475 -0.01620557 -0.02213215 0.045638334 0.0024548972
-0.028761653 -0.0036138163 -0.02051117 -0.006991162 -0.012838941 0.04050003 -0.014089521 -0.0063234186
-0.038437482 -0.056924272 0.010852099 0.0019534223 0.07065904 0.0020039587 -0.015581861 -0.11138187
-0.021844188 -0.06469871 -0.013820303 -0.06539716 -0.034213077 -0.051217157 -0.0053798794 -0.02442866
-0.06828986 -0.004336692 0.009532625 -0.05162191 -0.02015004 0.02224518 -0.022935253 -0.029479204
0.020495836 -0.11368443 -0.025231972 0.022174327 -0.10278003 0.04945955 -0.03578567 -0.0059535163
-0.060826607 -0.030852696 -0.030957948 -0.01978713 -0.08500055 0.010187028 -0.023154467 -0.07267849
-0.050454494 0.03808384
00000000: d160 c0bd e1dd 063d c6b9 5abd 8296 33b9
00000010: e8b2 24bd a747 11bd f65a 2abb 8282 a8bc
00000020: 101e 40bb 79ef 833c 069f 083c 27e8 23bd
00000030: c43c c63d 517c d43c b8ff 38bc 1844 1abd
00000040: 649e bfbd a892 54bd 0b09 00bc 96b1 0e3c
00000050: 339c a13d 4bd9 bf3c 98d0 1bbe 41a4 bdbd
00000060: c639 46bd f820 21be 7fc0 70bc 7552 cfbd
00000070: 6a26 6dbb ec7e 94bd 81cb 883d 6a9a b53b
00000080: c45f d7bb 9445 07bd 63dd 293d 5a46 1bbc
00000090: 546f 12bd 1e3c db3c 3287 85bd 85f1 88bd
000000a0: 52c9 7cbd 5ef0 893c ea54 8ebc 9838 ccbd
000000b0: 21b6 44bd 147b d33b d18b a7bc 07de d6bc
000000c0: 2dfd 8dbc 3600 bbbd 5251 82bd e075 9fbd
000000d0: 6b6f 343d c284 73bc 0ae1 893c de26 a73c
000000e0: 6fc6 00bd 3dc8 f63b 9e95 b7bd 9caf 543d
000000f0: e78d adbd a024 98b9 d73c 9d3c b5b1 1b3b
00000100: dac4 93bd e308 6f3c 0941 88bc 7a75 bb3b
00000110: 2e2a d8bc 9d56 413d 9b5e e4b9 a1b5 10be
00000120: 978b a23c 4aeb c1bd 361e 9d3c b6d9 06ba
00000130: f8e0 80bc 21e8 a8bc fc6f e7bc 7728 9ebd
00000140: 3b53 b03d eaee 55bb a257 4cbe 2387 a5bd
00000150: 329d a5bd 8a0d 72bb 0094 77bd 2775 833a
00000160: 0e80 afbd 58a5 62bd 49a8 1c3d 49a5 81bd
00000170: ba0b c5bc 0fb4 48bd 2b69 3abd 605b c63c
00000180: ac4b 8cbd 85ee f6bb 3752 b53d 5416 d4bd
00000190: 480c 8a3d 0fe6 adbc 4430 d1bc 9f76 8e3b
000001a0: ecf2 7c3c fda7 6abc 238c 85bd cd23 84bc
000001b0: 4c51 6dbd 4d1f 8fbc 9c87 49bd 8ff4 ea3c
000001c0: bd35 f2bc a3d7 b5bc 59e1 203c 427f b83d
000001d0: 8bc1 84bc 7c4e b5bc 43ef 3a3d 57e2 203b
000001e0: 8f9d ebbc c7d5 6cbb 0b07 a8bc 1e16 e5bb
000001f0: 6c5a 52bc 5ce3 253d bcd7 66bc ae34 cfbb
00000200: 9f70 1dbd 6d29 69bd 01cd 313c fd04 003b
00000210: b0b5 903d d954 033b 104b 7fbc 2e1c e4bd
00000220: 95f2 b2bc c280 84bd 8d6e 62bc f2ee 85bd
00000230: 0323 0cbd 15c9 51bd b349 b0bb 9d1e c8bc
00000240: 8edb 8bbd cf1a 8ebb ba2e 1c3c 7f71 53bd
00000250: b211 a5bc 863b b63c b6e2 bbbc 5f7e f1bc
00000260: e2e6 a73c 62d3 e8bd 48b3 cebc efa6 b53c
00000270: 567e d2bd 1996 4a3d ff93 12bd b715 c3bb
00000280: 5225 79bd cbbe fcbc 869b fdbc 9f18 a2bc
00000290: c514 aebd 7ee7 263c 70ae bdbc 76d8 94bd
000002a0: 5fa9 4ebd cdfd 1b3d

dense_1/bias f4 [578]
-0.0023374453 0.01502524 -0.031771727 0.0069592013 0.029406007 0.0052945954 -0.01046684 -0.028939178
-0.0068635116 -0.0025273957 -0.001900178 -0.072949424 0.023741882 0.006935032 0.006168192 0.056314547
0.0539081 0.012759896 -0.027543826 0.00048077226 0.05091326 -0.029606592 -0.019305248 -0.012677813
-0.032793704 -0.00871084 0.02196882 -0.08552418 0.0078076706 -0.018821709 -0.015700137 0.015152425
-0.04665935 -0.057569154 -0.06726398 0.07070024 -0.01506326 -0.0012654263 -0.029697224 0.09095403
0.02072475 0.022422967 0.02159742 -0.0063800006 0.040575918 0.030530693 0.009132128 0.00675156
-0.06751932 0.01124176 0.011781447 -0.009423098 0.042600267 -0.037420917 0.04928955 0.019397821
-0.0073909243 -0.009041337 0.011738396 0.023028268 0.016069807 -0.057183143 0.03952729 -0.0011852079
-0.019732768 -0.051604263 -0.032413762 -0.052682575 -0.0005907304 0.026630243 -0.022067945 -0.026952192
-0.006136827 -0.006020252 0.08302095 -0.030709265 0.0028402007 -0.021960901 -0.0020259228 0.019911306
-0.04959757 -0.057270024 -0.02430807 0.04959331 -0.067682676 0.040576383 0.027879998 -0.0050845915
0.05196454 -0.027847726 -0.0030448644 -0.089312054 0.0072177295 -0.025393717 -0.0220287 -0.003138337
0.021834714 -0.020730164 -0.061051257 0.036156632 -0.054428708 0.025582144 0.0064495774 -0.045890443
0.03681686 0.029034603 -0.032472506 -0.012300699 0.03240821 0.03207043 0.031245973 -0.010814118
0.012886635 0.016747558 0.023057193 0.010087281 -0.019799218 0.021386744 0.027448725 -0.006375933
-0.002804012 -0.0037111354 0.013804235 0.05123915 -0.043766078 -0.0069360132 0.033092983 0.08800776
0.022262724 0.013535137 0.013727408 0.0649153 -0.0356863 0.004280084 -0.0073409397 -0.03603557
-0.058469426 0.042241853 -0.027731845 0.024620516 -0.058637254 0.042557742 0.020957636 0.009807542
0.03608372 -0.0428797 -0.077701874 0.007191079 -0.06469113 -0.013854607 -0.04337982 0.020043096
-0.031877987 -0.020988962 0.07922793 -0.009576727 0.023096517 -0.009184055 -0.099715225 -0.014937963
-0.007974626 -0.055743124 -0.056072302 0.008799144 -0.0057817632 0.041093618 -0.04185566 0.07494596
-0.010846233 0.011811513 -0.02876832 0.0095044775 0.031344056 -0.01326925 0.019747995 0.009707274
-0.010011209 0.011815743 -0.032442357 0.020453272 -0.020228758 0.009448182 -0.0698934 -0.025577314
-0.032692313 -0.023946688 0.042534564 -0.015598249 -0.013626259 0.04967819 -0.015412026 -0.02277992
-0.041726865 0.0028333582 0.048911337 0.058267962 -0.010187686 0.0171628 0.010732713 0.0021496513
-0.02977736 -0.039690666 -0.059504993 -0.03869413 0.04347523 0.051938392 0.0017714613 -0.03241327
0.0100844465 -0.001196228 -0.013546855 -0.020162562 0.0023354806 0.006961366 0.0019277106 0.049655493
-0.085275084 0.07465029 0.018729087 0.00772734 -0.038490143 0.030121801 0.0063880985 0.035442833
-0.06556787 -0.013623822 -0.052331265 -0.019256275 0.038561318 0.04287999 0.023371816 -0.033588216
0.0038978579 -0.01210529 -0.046213202 -0.012584257 -0.0091750845 0.066966526 -0.043454517 -0.024220329
-0.003258188 0.015402946 0.019741874 -0.023855923 0.034648657 -0.013282794 0.017734665 0.005598182
-0.037371513 -0.077156566 -0.009457814 0.007488797 -0.001029184 -0.007007627 -0.059884388 -0.047269523
00000000: d32f 19bb 6d2c 763c 1223 02bd 030a e43b
00000010: dee4 f03c 497e ad3b 1c7d 2bbc db11 edbc
00000020: 4fe7 e0bb aaa2 25bb 650f f9ba 8266 95bd
00000030: 567e c23c 443f e33b 8b1e ca3b 15aa 663d
00000040: bdce 5c3d e20e 513c 97a3 e1bc 2910 fc39
00000050: 6c8a 503d 8689 f2bc 0a26 9ebc 9ab6 4fbc
00000060: b152 06bd e9b7 0ebc f4f7 b33c 4d27 afbd
00000070: 7dd7 ff3b fc2f 9abc 939d 80bc e041 783c
00000080: e01d 3fbd a2cd 6bbd b3c1 89bd 4acb 903d
00000090: e4cb 76bc a9dc a5ba 9847 f3bc 1b46 ba3d
000000a0: f3c6 a93c 5fb0 b73c 13ed b03c 530f d1bb
000000b0: ef32 263d 811b fa3c ec9e 153c 313c dd3b
000000c0: 9247 8abd 5c2f 383c f806 413c 5663 1abc
000000d0: 9e7d 2e3d ad46 19bd d7e3 493d 2ee8 9e3c
000000e0: 912f f2bb 1e22 14bc 6752 403c c7a5 bc3c
000000f0: d4a4 833c df38 6abd 5ee7 213d fa58 9bba
00000100: 9da6 a1bc fe5e 53bd 4bc4 04bd afc9 57bd
00000110: 3fdb 1aba ab27 da3c d6c7 b4bc d8ca dcbc
00000120: 7017 c9bb 8945 c5bb e306 aa3d ff91 fbbc
00000130: a922 3a3b 59e7 b3bc 58c5 04bb 091d a33c
00000140: d226 4bbd f993 6abd b821 c7bc 5b22 4b3d
00000150: 379d 8abd 6c33 263d 9864 e43c a59c a6bb
00000160: c5d8 543d ea20 e4bc 598c 47bb 3de9 b6bd
00000170: b482 ec3b 7c06 d0bc 8875 b4bc 8fac 4dbb
00000180: b7de b23c 4ed2 a9bc e210 7abd fa18 143d
00000190: a3f0 5ebd a591 d13c fa56 d33b 9ef7 3bbd
000001a0: 47cd 163d fad9 ed3c e401 05bd df88 49bc
000001b0: 79be 043d 495c 033d 8ef7 ff3c b32d 31bc
000001c0: 7722 533c 2d32 893c 70e2 bc3c 2045 253c
000001d0: f831 a2bc 4133 af3c 26dc e03c 34ed d0bb
000001e0: 84c3 37bb 8536 73bb 282b 623c 25e0 513d
000001f0: 0f44 33bd 7f47 e3bb 828c 073d 6a3d b43d
00000200: 5160 b63c 7bc2 5d3c ece8 603c 50f2 843d
00000210: cc2b 12bd f23f 8c3b 448c f0bb 099a 13bd
00000220: a37d 6fbd cb05 2d3d e52d e3bc f7b0 c93c
00000230: 9e2d 70bd 0751 2e3d 59af ab3c d0af 203c
00000240: 86cc 133d a0a2 2fbd 2922 9fbd 25a3 eb3b
00000250: c87c 84bd 6ffe 62bc 0aaf 31bd 6b31 a43c
00000260: 7e92 02bd 0bf1 abbc 4142 a23d b4e7 1cbc
00000270: e834 bd3c b878 16bc 7f37 ccbd 5cbe 74bc
00000280: 01a8 02bc e752 64bd 12ac 65bd 492a 103c
00000290: f274 bdbb c851 283d d770 2bbd 447d 993d
000002a0: 66b4 31bc 1485 413c 8aab ebbc abb8 1b3c
000002b0: a062 003d 4567 59bc 8cc6 a13c 420b 1f3c
000002c0: 0e06 24bc d196 413c 47e2 04bd 9f8d a73c
000002d0: c8b6 a5bc 8ccc 1a3c 4524 8fbd 8487 d1bc
000002e0: 60e8 05bd d82b c4bc b938 2e3d cc8f 7fbc
000002f0: ac40 5fbc 5c7b 4b3d b982 7cbc f49c babc
00000300: cae9 2abd ddaf 393b 4157 483d 63aa 6e3d
00000310: 41ea 26bc 0099 8c3c 43d8 2f3c 2ae1 0c3b
00000320: a6ef f3bc ae92 22bd 82bb 73bd bc7d 1ebd
00000330: 1513 323d 5abd 543d 6130 e83a c7c3 04bd
00000340: 3c39 253c c0ca 9cba a1f3 5dbc f52b a5bc
00000350: dd0e 193b 2c1c e43b 3cab fc3a 8f63 4b3d
00000360: b4a4 aebd 40e2 983d be6d 993c a035 fd3b
00000370: d7a7 1dbd ffc1 f63c 4153 d13b 812c 113d
00000380: 7348 86bd 7336 5fbc 4f59 56bd 56bf 9dbc
00000390: 79f2 1d3d eea2 2f3d 4076 bf3c cc93 09bd
000003a0: 3473 7f3b 4455 46bc 0e4a 3dbd 332e 4ebc
000003b0: 1853 16bc bf25 893d 5dfd 31bd b669 c6bc
000003c0: 5387 55bb a35c 7c3c b6b9 a13c 7f6d c3bc
000003d0: c0eb 0d3d 13a0 59bc 4a48 913c f470 b73b
000003e0: df12 19bd 4304 9ebd f2f4 1abc 9564 f53b
000003f0: afe5 86ba 3ca0 e5bb 5549 75bd b09d 41bd

dense/bias f4 [34]
-0.018362036 0.0019385119 0.102984056 -0.021729056 0.048495166 0.040976826 -0.029245157 -0.016511612
0.049988147 -0.038182534 -0.024919339 -0.017783962 0.021084314 0.04021269 -0.034600105 0.008463881
0.05270002 0.01854924 -0.027812669 -0.038938474 -0.004377633 0.08040012 0.035832416 0.07308633
-0.020404337 -0.02976328 -0.016354265 -0.033252575 0.0034948383 -0.01742062 -0.0017833336 -0.014382735
-0.042071387 0.014721638
00000000: fb6b 96bc aa15 fe3a 4ee9 d23d 2201 b2bc
00000010: dea2 463d 51d7 273d 8a93 efbc 5c43 87bc
00000020: 5fc0 4c3d 4a65 1cbd a423 ccbc acaf 91bc
00000030: 03b9 ac3c 10b6 243d d7b8 0dbd 17ac 0a3c
00000040: fadb 573d 93f4 973c 65d7 e3bc f37d 1fbd
00000050: 3f72 8fbb d1a8 a43d 03c5 123d 49ae 953d
00000060: ff26 a7bc 1fd2 f3bc 61f9 85bc da33 08bd
00000070: a809 653b b0b5 8ebc bfbe e9ba 90a5 6bbc
00000080: 0c53 2cbd 0633 713c

std.constant f4 [34, 34]
0.25841054 0.30629617 -0.084905505 0.21558414 -0.29755533 -0.16469795 0.20044404 -0.05658613
0.20929338 0.21767817 -0.030151412 0.10338103 -0.011032833 0.11644979 0.13977996 -0.20804471
0.21293858 -0.3486707 -0.37414783 0.09499474 -0.09404592 -0.10905165 0.2925787 -0.38354477
0.12807934 0.19807033 0.005314673 0.26673084 -0.12951662 -0.17893164 -0.30093914 -0.10429962
0.25082034 -0.35903475 -0.09349658 0.15571626 -0.45262703 0.03783153 0.026262045 0.062938936
-0.24429409 -0.26577413 -0.23865789 -0.20630011 0.33429864 0.25983736 0.019424101 0.057376247
0.15249273 0.1972643 -0.093969144 -0.30985993 -0.2368607 0.15307026 0.16304897 -0.35404143
-0.14174494 0.0979834 0.27424663 -0.04270516 -0.10176151 0.06635129 -0.013109965 -0.062122192
0.15069862 0.15669015 -0.22979395 0.13808209 -0.24830861 0.13910918 0.009747728 0.12327678
-0.04612315 -0.12408092 -0.42653105 -0.15609324 -0.04197772 -0.15696463 0.16610381 0.15886539
0.101999514 -0.16234308 0.28582877 0.1445045 -0.15190853 -0.13805957 0.17276719 0.10380498
-0.23059313 0.041245155 -0.034805395 -0.0017452772 -0.21763286 0.014172795 -0.11505229 -0.0075396453
0.27658874 -0.23049247 0.15112035 0.047451135 0.067563534 -0.2515985 -0.53844583 0.077127285
0.25613707 -0.23466267 -0.40242708 -0.008614392 -0.13493285 0.12644875 0.023318812 -0.020598283
-0.20024642 -0.14694932 -0.39419124 0.25520283 -0.09385381 -0.19101952 0.06822216 0.036692124
-0.3114394 0.19398287 0.2181437 -0.31165776 0.2337531 0.09308454 0.10560945 0.094955936
0.27612576 -0.058739886 -0.22860181 0.18211518 -0.06273169 0.0879683 0.08421737 0.2521931
-0.17276728 -0.15772614 0.38448045 -0.22315228 0.28346932 -0.22054851 -0.09978049 -0.19836135
0.34732923 -0.057346538 0.1920365 -0.23711756 0.27123156 0.09273116 0.06969165 -0.07467213
0.023182936 -0.06397431 -0.21437982 -0.25561902 0.08778175 -0.31401595 0.119997896 0.30111316
0.11561284 -0.13674371 0.3206099 0.18975088 0.23485203 -0.022556875 -0.22334164 -0.0047347774
-0.19510527 0.14951861 0.14899373 -0.13170804 -0.09241742 0.17898394 0.03533743 0.20468783
-0.17818935 0.051251568 0.3615813 -0.2912739 0.086327955 0.06021076 0.11314022 0.06809547
-0.11096502 0.30462968 -0.23955004 -0.007378925 0.03952663 -0.037164036 -0.40110958 0.2693158
0.24121511 -0.15981764 -0.0073052635 -0.009800711 0.15156752 -0.003752396 0.2900912 -0.22295944
-0.30961564 0.32782623 -0.221783 -0.2265474 0.24692996 -0.025749471 0.02017667 -0.1853778
0.094417654 0.024785133 -0.0132595245 0.13961998 0.08766294 0.20741534 0.0499803 -0.159412
0.2773827 -0.23323028 -0.16423295 0.3134775 0.23605327 0.12836435 -0.27237436 0.022132033
0.35627475 -0.2898823 0.019866135 0.25457555 0.092217654 -0.09992048 -0.29591647 -0.09228578
-0.09693544 0.12072158 -0.17396909 -0.10709624 0.15272379 0.0032151807 -0.4013944 -0.0041421503
0.049629472 -0.048660234 -0.30460483 -0.26405212 0.20822501 -0.02084459 -0.15839623 -0.26049632
0.2950867 -0.11788875 0.21248586 -0.22783946 -0.020233333 -0.1322027 0.015580376 0.19118454
00000000: 634e 843e dad2 9c3e f0e2 adbd 17c2 5c3e
00000010: 2c59 98be 94a6 28be 3441 4d3e dcc6 67bd
00000020: 0151 563e 07e7 5e3e 1800 f7bc 6fb9 d33d
00000030: 0ec3 34bc 3a7d ee3d 7a22 0f3e ac09 55be
00000040: 920c 5a3e f784 b2be 4e90 bfbe 9a8c c23d
00000050: 269b c0bd 7956 dfbd e0cc 953e fb5f c4be
00000060: 3b27 033e f3d2 4a3e b526 ae3b f290 883e
00000070: 01a0 04be db39 37be b214 9abe 0a9b d5bd
00000080: 866b 803e 67d3 b7be 237b bfbd 1574 1f3e
00000090: bbbe e7be 3cf5 1a3d 8023 d73c 21e6 803d
000000a0: 3b28 7abe 8c13 88be bc62 74be 5640 53be
000000b0: 3129 ab3e 6709 853e 4b1f 9f3c 5b03 6b3d
000000c0: 0e27 1c3e a7ff 493e e572 c0bd f6a5 9ebe
000000d0: 9d8b 72be 73be 1c3e 4ff6 263e eb44 b5be
000000e0: 9625 11be 85ab c83d 0e6a 8c3e 9beb 2ebd
000000f0: 5768 d0bd 2fe3 873d 2ecb 56bc d773 7ebd
00000100: bd50 1a3e 6273 203e 1b4f 6bbe 6465 0d3e
00000110: 9d44 7ebe a372 0e3e efb4 1f3c 8978 fc3d
00000120: a1eb 3cbd 231e febd 4762 dabe e8d6 1fbe
00000130: d4f0 2bbd 56bb 20be 1e17 2a3e 9cad 223e
00000140: 1fe5 d03d 443d 26be 2658 923e fdf8 133e
00000150: e98d 1bbe 7d5f 0dbe e2e9 303e b597 d43d
00000160: 9b20 6cbe aef0 283d 1a90 0ebd c9c1 e4ba
00000170: 26db 5ebe 0335 683c 89a0 ebbd 210f f7bb
00000180: 0a9d 8d3e 3806 6cbe 4bbf 1a3e 1f5c 423d
00000190: c05e 8a3d 85d1 80be 96d7 09bf e9f4 9d3d
000001a0: 6624 833e 694b 70be ec0a cebe 6123 0dbc
000001b0: d62b 0abe c87b 013e 1807 bf3c bbbd a8bc
000001c0: 660d 4dbe e279 16be 6fd3 c9be f2a9 823e
000001d0: 6d36 c0bd 9f9a 43be 0fb8 8b3d 7b4a 163d
000001e0: fc74 9fbe 72a3 463e 1061 5f3e 9b91 9fbe
000001f0: f95c 6f3e 1ba3 be3d c449 d83d 4278 c23d
00000200: 5b60 8d3e 3c99 70bd 9816 6abe 677c 3a3e
00000210: 7979 80bd b928 b43d 287a ac3d 741f 813e
00000220: e8e9 30be f682 21be 9fda c43e 0882 64be
00000230: e422 913e 78d7 61be b759 ccbd 3d1f 4bbe
00000240: 23d5 b13e 34e4 6abd 37a5 443e f2ce 72be
00000250: ddde 8a3e d6e9 bd3d 7fba 8e3d b4ed 98bd
00000260: 24ea bd3c f704 83bd 6286 5bbe 7fe0 82be
00000270: ebc6 b33d b3c6 a0be 75c1 f53d 812b 9a3e
00000280: 6dc6 ec3d 8b06 0cbe fb26 a43e 0e4e 423e
00000290: 0d7d 703e 32c9 b8bc acb3 64be 3126 9bbb
000002a0: adc9 47be 681b 193e d091 183e 79de 06be
000002b0: 5845 bdbd 9147 373e fbbd 103d b099 513e
000002c0: 4577 36be 2aed 513d 2f21 b93e da21 95be
000002d0: b6cc b03d 8f9f 763d 0fb6 e73d a375 8b3d
000002e0: a141 e3bd 6cf8 9b3e 9b4c 75be e9ca f1bb
000002f0: ade6 213d 5139 18bd 3c5e cdbe c3e3 893e
00000300: 1801 773e 3ca7 23be fe60 efbb 2993 20bc
00000310: 8434 1b3e c2ea 75bb d586 943e 7b4f 64be
00000320: f185 9ebe d7d8 a73e 151b 63be 0bfc 67be
00000330: 35db 7c3e 8ef0 d2bc 8b49 a53c aed3 3dbe
00000340: 0b5e c13d 310a cb3c 7a3e 59bc 8af8 0e3e
00000350: a188 b33d b064 543e 25b8 4c3d e63c 23be
00000360: 1b05 8e3e ebd3 6ebe af2c 28be 1f80 a03e
00000370: f3b7 713e f271 033e a774 8bbe 3d4e b53c
00000380: a569 b63e 746b 94be 4ebe a23c ba57 823e
00000390: 9cdc bc3d 1ca3 ccbd 5d82 97be 5400 bdbd
000003a0: 1786 c6bd e03c f73d f424 32be 4655 dbbd
000003b0: a063 1c3e c8b5 523b 9183 cdbe e0ba 87bb
000003c0: 4648 4b3d f44f 47bd 2af5 9bbe d731 87be
000003d0: f038 553e 46c2 aabc 9f32 22be c65f 85be
000003e0: 9b15 973e a86f f1bd e595 593e bf4e 69be
000003f0: 60c0 a5bc 2560 07be d544 7f3c e1c5 433e

std.constant1 f4 [578, 34]
0.12102869 0.107748926 -0.12774616 -0.0035316674 0.16667227 -0.23047616 -0.027528483 0.12627877
0.2617013 -0.016159426 0.059653804 0.1315879 0.08929896 -0.063498765 -0.09277639 0.0206415
0.31888247 -0.058695585 -0.25668633 -0.025740255 0.1321652 0.12736487 0.19242074 0.024759091
-0.0024447963 -0.022878285 0.07289637 0.04111239 -0.12282176 0.0997058 0.4592187 -0.03544295
0.054264847 -0.030215774 -0.06672378 0.0009820434 0.122057244 0.013120088 0.20815499 -0.111097254
0.075387165 0.07163323 0.012949745 -0.04664324 -0.07818265 0.13013032 0.21492761 -0.03242298
-0.19576094 0.10925252 -0.002705026 -0.07636283 0.2394088 0.117011614 -0.37074745 0.16660866
0.007277342 0.15281507 0.0018510885 0.0950073 0.15986493 -0.13832629 -0.27846512 -0.015340117
0.11383874 0.005295746 0.2658083 -0.06885842 -0.051612936 -0.00034306032 0.24631856 -0.051206544
-0.24308352 0.20705384 -0.15731637 -0.004086375 0.13467877 0.10771767 0.16517836 -0.18221974
-0.23951836 -0.13867086 0.13739271 -0.23256516 -0.016574588 0.02267936 -0.16885579 0.3498924
0.116615824 -0.14363575 -0.19781907 0.08732642 0.027457768 -0.35435566 -0.043074463 0.1982818
0.20712416 0.033726636 0.14669512 -0.20195131 -0.19645207 -0.16738714 0.15905848 -0.13017477
-0.0831892 -0.05902246 -0.23924448 -0.028366057 0.019846804 -0.13748395 0.12014965 0.049191035
0.007772689 0.011127671 -0.2548977 -0.18567437 0.106825404 -0.21226375 -0.02928834 0.34239328
-0.03754188 -0.0672312 0.30909178 -0.26423082 -0.1128981 0.03641335 -0.040916152 0.27083227
-0.06991039 -0.23929863 0.04609285 0.06220733 0.3617314 0.36534068 -0.014845143 -0.07314286
-0.026041903 0.026240006 0.03769972 0.11315384 -0.025176896 -0.33111194 0.16514876 0.14319439
-0.0022624338 -0.090707816 -0.032124806 -0.15147802 -0.059562683 0.047815204 -0.011998207 0.0019328699
-0.06219776 -0.05013429 -0.0094027715 -0.1758461 0.006656094 0.08049135 -0.13092867 -0.13051262
-0.22596054 0.18360426 0.15051495 0.15761083 0.024340628 -0.04423602 0.1667901 -0.08188777
0.0015748105 -0.20304851 0.1135502 0.10281611 0.053320903 -0.09230054 -0.12305995 -0.036845185
0.20037846 0.12778871 0.075487845 0.0022242237 0.120895915 -0.19180444 0.13907479 -0.08694199
-0.036659695 -0.12854101 -0.13535659 -0.06343435 0.33238223 -0.1573368 -0.045674462 -0.06501618
-0.1182548 0.04973929 0.1643232 -0.101829566 -0.10650703 -0.2200856 -0.008737853 0.0678069
-0.23231573 -0.12768112 -0.020013915 -0.031258106 -0.0526006 0.030020842 0.08410737 0.0346041
-0.08103172 0.0815427 0.03922262 -0.038445417 -0.06600341 0.042671844 -0.042390693 0.06597172
-0.005966533 0.08090379 0.042844713 0.029502524 -0.20168331 0.041983463 0.1688383 0.12738986
-0.14172485 0.039172683 -0.13186102 0.15528663 0.0031930155 0.018603629 0.024182767 0.1193598
0.08468298 -0.3691714 -0.23217572 0.039399218 -0.18157077 -0.11445244 0.01566348 0.044763826
0.006581432 0.04153323 0.0024367047 -0.05291351 -0.008624578 0.06826104 0.11536922 0.11684512
-0.00966431 0.022980625 0.3722086 0.052553453 0.07490676 -0.10105557 -0.106545 0.09542142
00000000: e4dd f73d 78ab dc3d e4cf 02be 8c73 67bb
00000010: 23ac 2a3e f101 6cbe 6a83 e1bc 394f 013e
00000020: b6fd 853e c660 84bc 8c57 743d fabe 063e
00000030: 60e2 b63d a40b 82bd 8c01 bebd 5d18 a93c
00000040: 9044 a33e c86a 70bd 646c 83be 3add d2bc
00000050: 5056 073e f06b 023e f109 453e 94d3 ca3c
00000060: e038 20bb 3e6b bbbc b14a 953d 7765 283d
00000070: fa89 fbbd 8e32 cc3d b71e eb3e a02c 11bd
00000080: d144 5e3d 1287 f7bc 7aa6 88bd e9b7 803a
00000090: 26f9 f93d a3f5 563c 9526 553e f586 e3bd
000000a0: 9664 9a3d 71b4 923d 2b2b 543c fb0c 3fbd
000000b0: 3a1e a0bd e240 053e fc15 5c3e f5cd 04bd
000000c0: 8e75 48be c9bf df3d ce46 31bb 1e64 9cbd
000000d0: 9527 753e c9a3 ef3d 9cd2 bdbe 769b 2a3e
000000e0: c576 ee3b 8e7b 1c3e 39a0 f23a 3093 c23d
000000f0: a2b3 233e 68a5 0dbe fb92 8ebe 1d55 7bbc
00000100: 4924 e93d f087 ad3b 0718 883e a505 8dbd
00000110: 1668 53bd c7dc b3b9 ef3a 7c3e f4bd 51bd
00000120: e3ea 78be ec05 543e 8b17 21be ffe6 85bb
00000130: 3be9 093e 159b dc3d 8424 293e d097 3abe
00000140: 4d44 75be bcff 0dbe adb0 0c3e 9025 6ebe
00000150: 6ec7 87bc 11ca b93c 88e8 2cbe 1925 b33e
00000160: 47d4 ee3d 4015 13be 1591 4abe 32d8 b23d
00000170: 1def e03c 1b6e b5be d96e 30bd 620a 4b3e
00000180: 5b18 543e f124 0a3d 3f37 163e 53cc 4ebe
00000190: bb2a 49be 8967 2bbe 3ae0 223e 894c 05be
000001a0: 195f aabd 89c1 71bd 81fc 74be ef5f e8bc
000001b0: c495 a23c 98c8 0cbe 0511 f63d 8a7c 493d
000001c0: 0bb2 fe3b d650 363c f481 82be 6c21 3ebe
000001d0: 47c7 da3d ab5b 59be 1aee efbc 2c4e af3e
000001e0: 84c5 19bd 83b0 89bd 4741 9e3e 4349 87be
000001f0: 1e37 e7bd 2a26 153d b297 27bd 87aa 8a3e
00000200: 2e2d 8fbd b30a 75be dbcb 3c3d 1dcd 7e3d
00000210: dc34 b93e ef0d bb3e 0b39 73bc eccb 95bd
00000220: d455 d5bc 48f5 d63c 066b 1a3d 33bd e73d
00000230: c73f cebc 8187 a9be c21c 293e 8da1 123e
00000240: 5745 14bb 05c5 b9bd 4d95 03bd 0e1d 1bbe
00000250: 00f8 73bd e0d9 433d 2194 44bc 5a58 fd3a
00000260: 14c3 7ebd 9d59 4dbd 150e 1abc 0011 34be
00000270: 5d1b da3b a6d8 a43d 2a12 06be 1aa5 05be
00000280: 3362 67be c102 3c3e 9720 1a3e bc64 213e
00000290: ff65 c73c d430 35bd 06cb 2a3e c6b4 a7bd
000002a0: df69 ce3a f3eb 4fbe 028d e83d 4191 d23d
000002b0: 0567 5a3d 1108 bdbd db06 fcbd faea 16bd
000002c0: 0330 4d3e 0bdb 023e 5f99 9a3d 48c4 113b
000002d0: 4798 f73d 6268 44be 9f69 0e3e a40e b2bd
000002e0: 7a28 16bd 41a0 03be eb9a 0abe dee9 81bd
000002f0: 012e aa3e e61c 21be 2515 3bbd 3427 85bd
00000300: 932f f2bd 6dbb 4b3d 5744 283e 058c d0bd
00000310: 5c20 dabd 1f5e 61be 3629 0fbc 58de 8a3d
00000320: 2de4 6dbe d7be 02be 39f4 a3bc 8008 00bd
00000330: ba73 57bd 45ee f53c 7c40 ac3d 07bd 0d3d
00000340: f5f3 a5bd dcff a63d e6a7 203d f178 1dbd
00000350: cc2c 87bd acc8 2e3d dda1 2dbd 2e1c 873d
00000360: e882 c3bb e3b0 a53d f07d 2f3d 47af f13c
00000370: 1286 4ebe daf6 2b3d f3e3 2c3e 7d72 023e
00000380: 5220 11be 8973 203d 9306 07be 7503 1f3e
00000390: e941 513b a366 983c f01a c63c e972 f43d
000003a0: 456e ad3d 0904 bdbe 79bf 6dbe 1361 213d
000003b0: b0ed 39be 0a66 eabd b350 803c 465a 373d
000003c0: 0ea9 d73b c01e 2a3d 1fb1 1f3b d6bb 58bd
000003d0: 1a4e 0dbc 72cc 8b3d b346 ec3d 7f4c ef3d
000003e0: 0e57 1ebc dd41 bc3c 2092 be3e 4a42 573d
000003f0: b768 993d 39f6 cebd 4434 dabd 4e6c c33d

std.constant2 f4 [170, 578]
-0.028563717 0.26324946 0.115703456 -0.02254128 0.005701536 0.067245394 -0.024839804 -0.039068803
-0.14836691 -0.06568258 -0.015169574 -0.027138276 0.060977366 -0.23428592 -0.044504836 -0.045230355
-0.26772377 -0.065393016 -0.11978107 0.036554098 -0.20181616 0.14846556 -0.032367285 0.07629547
0.04908813 0.08749539 0.2976799 0.05261091 0.014567078 0.07501611 0.058272697 0.2149396
-0.0046517393 0.1536918 -0.028692082 -0.016047286 0.102772355 0.1439148 -0.15438023 -0.04904848
0.07710677 0.07831523 0.10151578 0.06576772 -0.26871288 -0.087292105 0.16383938 -0.19653761
0.014529899 0.24315572 0.1632897 0.22520871 -0.22625282 -0.05107692 0.1108002 0.059944674
0.08102077 -0.058353964 0.08948107 -0.13504209 0.12315357 0.08790419 -0.2116442 -0.07931041
0.16777754 -0.17867166 0.107515216 0.13347314 -0.137266 -0.21132049 0.08281805 0.1766274
0.11942124 -0.15953743 0.0016601383 -0.11247811 -0.089405686 -0.10850929 -0.013806793 0.15061517
0.14990139 0.1455982 0.090667024 -0.42669716 0.28725418 0.09149212 0.05372524 -0.025917878
0.17343102 0.0035955189 0.07747102 0.28655335 -0.096531466 0.1370772 0.11588022 0.11248191
0.113125935 -0.088506125 0.36198348 -0.02945163 -0.012829982 0.06726942 0.18770352 0.11508581
-0.023146614 -0.00610477 0.15617117 -0.14645627 0.12335831 0.09809659 0.095879406 0.092531584
0.012070278 0.1250774 -0.11960813 -0.04737736 -0.14997104 -0.16232677 0.08684498 -0.100930475
0.0908522 -0.0830723 0.12860654 -0.3419168 -0.013741895 -0.06632827 0.06921757 -0.19573091
-0.031194791 -0.17208254 0.28753293 -0.124432474 0.056751452 0.18041243 -0.0042160326 -0.013256116
0.12028557 0.024120033 -0.14589411 -0.09875649 -0.20003055 -0.100109346 -0.0033399041 0.036803376
-0.08355776 -0.011422228 -0.045131415 -0.053575482 0.13483253 0.20038602 0.051629532 -0.048701186
0.035684578 -0.11243332 -0.29203185 -0.005029345 0.18731835 0.031495105 0.09605833 0.0069954223
-0.06151914 -0.023989774 -0.0037909364 0.19082287 0.25055125 -0.102299705 0.045141842 -0.14662787
0.28629312 0.09678827 -0.16845286 -0.10464898 0.008616779 -0.12048639 -0.10309527 -0.019234499
0.00023306956 0.0673305 0.29912004 0.04744614 -0.021930747 -0.054898433 0.016434442 0.026080046
0.0754257 0.091552466 -0.016748115 0.069988586 -0.111472376 -0.033102017 -0.067437716 -0.028952353
-0.080721505 -0.096369036 -0.3020773 -0.09202609 0.10762973 0.10677288 -0.07533699 -0.08533115
0.048334703 0.025366636 0.10857165 0.076106824 0.012703632 -0.09945177 0.29046482 0.09403694
-0.18483588 0.01241602 0.27955532 0.05437392 -0.043145295 0.08941439 -0.07578014 0.11464588
0.089398354 -0.058143865 0.20219532 0.07976898 -0.09137249 -0.07942922 -0.011628575 -0.11385136
0.17642476 0.38106155 0.20426512 0.09933873 -0.047487162 0.16903755 0.17264327 0.034061637
0.14705321 -0.00067154627 -0.064770915 0.17671467 0.053844053 -0.14506741 -0.0163719 -0.006831101
0.2770396 0.27910948 0.24808425 -0.037533272 0.2573507 0.15632029 -0.06879388 0.18647362
-0.14102173 0.10554212 0.033179604 0.14471051 -0.112188414 -0.106506035 0.13307644 0.064057514
00000000: 75fe e9bc a2c8 863e eff5 ec3d 7ea8 b8bc
00000010: f3d3 ba3b f4b7 893d d87c cbbc 9c06 20bd
00000020: 7fed 17be 9784 86bd ce89 78bc 1751 debc
00000030: 67c3 793d a6e8 6fbe b44a 36bd 7743 39bd
00000040: 1713 89be c6ec 85bd c74f f5bd c0b9 153d
00000050: e5a8 4ebe 5b07 183e 8f93 04bd cd40 9c3d
00000060: a310 493d c830 b33d 8069 983e 8a7e 573d
00000070: c1aa 6e3c 0ca2 993d 5aaf 6e3d 2019 5c3e
00000080: 9e6d 98bb 6261 1d3e a80b ebbc 9975 83bc
00000090: 507a d23d 675e 133e da15 1ebe 0fe7 48bd
000000a0: 27ea 9d3d bc63 a03d 81e7 cf3d 3ab1 863d
000000b0: bc94 89be 34c6 b2bd 83c5 273e 2841 49be
000000c0: d00e 6e3c d0fd 783e 6a35 273e 1d9d 663e
000000d0: d2ae 67be 0836 51bd 37eb e23d 8c88 753d
000000e0: 38ee a53d 9104 6fbd da41 b73d 7948 0abe
000000f0: f037 fc3d 1d07 b43d 42b9 58be 7f6d a2bd
00000100: e0cd 2b3e b4f5 36be f030 dc3d 2fad 083e
00000110: 758f 0cbe 6664 58be 839c a93d d0dd 343e
00000120: 2093 f43d c85d 23be ff98 d93a ec5a e6bd
00000130: 541a b7bd 1e3a debd e335 62bc dd3a 1a3e
00000140: c07f 193e b217 153e a2af b93d 0d78 dabe
00000150: fb12 933e 3860 bb3d ff0e 5c3d bb51 d4bc
00000160: e797 313e cca2 6b3b 20a9 9e3d 1fb7 923e
00000170: 4ab2 c5bd f75d 0c3e 9c52 ed3d ea5c e63d
00000180: 92ae e73d b342 b5bd e655 b93e 8b44 f1bc
00000190: d834 52bc 8dc4 893d 5a35 403e 1cb2 eb3d
000001a0: f89d bdbc 860a c8bb 56eb 1f3e a2f8 15be
000001b0: 48a3 fc3d dde6 c83d 6c5c c43d 3381 bd3d
000001c0: 6ac2 453c 4a14 003e 1bf5 f4bd c30e 42bd
000001d0: 0292 19be fd38 26be c8db b13d a3b4 cebd
000001e0: b810 ba3d cf21 aabd 6fb1 033e b80f afbe
000001f0: af25 61bc 1ed7 87bd f1c1 8d3d af6d 48be
00000200: 388c ffbc 6836 30be 8437 933e 74d6 febd
00000210: 3674 683d 09be 383e a526 8abb 2e30 59bc
00000220: 4858 f63d 6097 c53c 4465 15be d840 cabd
00000230: cfd4 4cbe 2106 cdbd 4be2 5abb 23bf 163d
00000240: 5520 abbd 4c24 3bbc b8db 38bd f771 5bbd
00000250: 8a11 0a3e fe31 4d3e 7d79 533d e57a 47bd
00000260: fe29 123d 7143 e6bd 3385 95be 34cd a4bb
00000270: 62d0 3f3e 0301 013d 3bba c43d db39 e53b
00000280: 7efb 7bbd 3486 c4bc 5c71 78bb 1267 433e
00000290: 4148 803e 8282 d1bd a7e6 383d 9e25 16be
000002a0: 0395 923e ee38 c63d e87e 2cbe 3452 d6bd
000002b0: 642d 0d3c 92c1 f6bd 9d23 d3bd ab91 9dbc
000002c0: 2264 7439 93e4 893d 4326 993e e256 423d
000002d0: 1ca8 b3bc 2edd 60bd 86a1 863c d2a5 d53c
000002e0: ca78 9a3d dc7f bb3d 5833 89bc 2d56 8f3d
000002f0: a14b e4bd fb95 07bd c91c 8abd 7c2d edbc
00000300: 5151 a5bd 215d c5bd e0a9 9abe 2d78 bcbd
00000310: fa6c dc3d bdab da3d 484a 9abd 19c2 aebd
00000320: 9cfa 453d b1cd cf3c d05a de3d e5dd 9b3d
00000330: e522 503c 5fad cbbd ceb7 943e 7096 c03d
00000340: 9e45 3dbe 906c 4b3c e021 8f3e 30b7 5e3d
00000350: 1fb9 30bd e41e b73d 9e32 9bbd 76cb ea3d
00000360: 7c16 b73d 4328 6ebd 4a0c 4f3e eb5d a33d
00000370: 8021 bbbd c9ab a2bd c785 3ebc e72a e9bd
00000380: b1a8 343e 801a c33e e02a 513e 1b72 cb3d
00000390: e681 42bd 2e18 2d3e 66c9 303e 3784 0b3d
000003a0: 1e95 163e b50a 30ba 9da6 84bd b1f4 343e
000003b0: 958b 5c3d 8d8c 14be 5d1e 86bc 6ed7 dfbb
000003c0: 22d8 8d3e 70e7 8e3e cc09 7e3e 7dbc 19bd
000003d0: 79c3 833e 6d12 203e cee3 8cbd f1f2 3e3e
000003e0: 0068 10be 7826 d83d 56e7 073d fe2e 143e
000003f0: 0ac3 e5bd d61f dabd 3145 083e 9630 833d

std.constant3 f4 [102, 170]
0.04075454 -0.016411087 -0.11135251 -0.060810972 -0.11028932 -0.01026424 0.059900638 0.13497008
0.014620047 -0.22208427 0.07179931 0.08537463 -0.050939377 -0.10462693 -0.103145845 0.14461558
-0.09915237 -0.07745663 0.11981236 -0.037944153 0.32113445 0.39438668 0.090976276 0.16504213
-0.03725036 0.1090583 -0.17461795 0.08580894 0.23647498 -0.15088145 -0.06309668 0.35953397
0.18553373 0.12391014 0.105642915 0.14155915 -0.045813184 -0.091759115 0.028799001 0.061646707
0.11447217 0.18872833 0.06703036 0.12574895 0.1584004 0.043948382 -0.10560942 -0.038785055
0.046359394 -0.14196809 -0.16800152 0.107731424 0.24850114 -0.09831137 -0.10070496 0.06706346
-0.06080131 0.09839128 0.0224519 0.0007220317 -0.017211976 0.097400874 0.015846094 0.044938613
0.06344849 0.30272648 0.11962855 0.26049837 0.0069067855 -0.072521396 0.33248097 0.109718606
0.05803491 -0.12749523 -0.14667708 -0.13624997 -0.013754886 0.11543355 -0.120048866 0.07838995
-0.13930239 -0.111356236 -0.02106 0.020543322 0.02105482 -0.02038013 -0.0440763 -0.14364825
0.2565993 0.0030854787 0.010059347 0.10268558 0.010964481 0.21619903 0.026683435 0.032200806
0.37962618 0.18664359 -0.032450326 0.27482498 0.16151777 0.10425872 -0.07328499 -0.12250467
0.12492109 0.1032137 0.07456501 -0.057518993 -0.10163676 -0.02373101 -0.07622025 -0.004198845
0.20338745 0.009116195 0.051760126 0.2728117 -0.040448885 0.090403974 0.19267483 0.20554404
-0.056469534 -0.019154126 0.012902983 0.023504596 -0.03443117 0.2191551 -0.12368168 -0.09564922
0.0803143 0.09246616 -0.22024122 -0.14137793 0.12976812 -0.08008029 0.01183662 0.04307164
0.038631834 -0.15697913 0.03162765 -0.14093448 0.0734134 -0.022142714 0.10842142 0.05724736
-0.09690701 6.82522e-05 -0.039401203 -0.041331913 0.023009716 0.08115547 -0.030329887 0.14372785
-0.041784033 0.1639216 -0.041447505 -0.14123558 -0.034935515 0.11909186 0.031704437 0.23378311
-0.08121996 -0.1416016 -0.053728856 0.1093254 0.080798015 0.025405081 -0.06714684 0.05174385
-0.06719092 -0.03981667 -0.020419572 -0.14407995 0.11238909 -0.26910907 -0.033647027 -0.0802147
-0.15619975 -0.08852003 -0.006188072 0.07170083 0.4019929 -0.0933699 0.21975614 0.0053429133
-0.19140528 -0.17255862 0.08753376 0.025125938 -0.16420758 0.07579617 -0.15123144 -0.2448734
0.051641885 -0.16563949 -0.14019929 0.097915016 0.14267187 0.18019794 0.25879878 0.11280902
-0.035668693 0.025514487 -0.017396482 0.030313652 0.39739394 0.02136783 0.06924628 -0.040386677
0.048964854 0.26152563 0.1279121 -0.18565431 0.0077302777 0.0004883016 -0.3432357 -0.16668531
0.38575968 0.030847706 -0.24161236 0.23610619 0.0011943089 -0.10021796 -0.1022787 -0.23425642
-0.19091202 -0.00097270653 -0.025533848 0.017587654 0.35935748 0.09328302 -0.14499453 -0.16951127
-0.387964 -0.0039239875 0.14861216 0.1705195 0.4772746 -0.25967318 0.041533094 -0.07509306
-0.13087471 0.19053096 0.024777345 0.18135808 0.3357015 -0.1985589 0.052878663 -0.08244358
0.09979455 -0.16493285 -0.13236552 -0.018923765 -0.01037992 0.05060098 -0.06848866 0.004177241
00000000: 3cee 263d 8b70 86bc c90c e4bd ed14 79bd
00000010: 5edf e1bd 582b 28bc 5f5a 753d 9935 0a3e
00000020: ec88 6f3c 0f6a 63be 840b 933d e5d8 ae3d
00000030: cfa5 50bd a546 d6bd 213e d3bd 1b16 143e
00000040: 6610 cbbd 95a1 9ebd 2f60 f53d 546b 1bbd
00000050: bc6b a43e 0ded c93e c551 ba3d ce00 293e
00000060: d593 18bd f559 df3d 0ccf 32be 99bc af3d
00000070: 7f26 723e ab80 1abe d538 81bd d614 b83e
00000080: 8efc 3d3e 99c4 fd3d 505b d83d e2f4 103e
00000090: 9ba6 3bbd 34ec bbbd e2eb eb3c 4281 7c3d
000000a0: 6370 ea3d 0042 413e 3747 893d 55c4 003e
000000b0: b733 223e 3803 343d c049 d8bd 14dd 1ebd
000000c0: 59e3 3d3d 1560 11be 9708 2cbe 4ba2 dc3d
000000d0: 1577 7e3e 7957 c9bd 673e cebd 9158 893d
000000e0: cb0a 79bd 5e81 c93d 0ced b73c ba46 3d3a
000000f0: 2100 8dbc 1c7a c73d abcf 813c 8d11 383d
00000100: 48f1 813d f7fe 9a3e d0ff f43d 0b60 853e
00000110: 5152 e23b 1986 94bd f23a aa3e 26b4 e03d
00000120: 04b6 6d3d 1c8e 02be 8432 16be 1d85 0bbe
00000130: 2c5c 61bc 6d68 ec3d 2edc f5bd e98a a03d
00000140: 49a5 0ebe bd0e e4bd 0586 acbc 784a a83c
00000150: 287b ac3c 3bf4 a6bc 5a89 34bd 8718 13be
00000160: fc60 833e be35 4a3b f6cf 243c d14c d23d
00000170: 5ea4 333c 4763 5d3e 3897 da3c fee4 033d
00000180: 5d5e c23e 7f1f 3f3e a2ea 04bd dcb5 8c3e
00000190: ea64 253e 9985 d53d 7116 96bd bae3 fabd
000001a0: a1d6 ff3d b461 d33d 8ab5 983d 0999 6bbd
000001b0: ef26 d0bd 8967 c2bc 5d19 9cbd 7796 89bb
000001c0: cd44 503e 185c 153c 6d02 543d faad 8b3e
000001d0: bbad 25bd b825 b93d 8d4c 453e 237a 523e
000001e0: 994c 67bd 1de9 9cbc 0967 533c b68c c03c
000001f0: b307 0dbd 326a 603e d24c fdbd bde3 c3bd
00000200: d37b a43d e65e bd3d ea86 61be 60c5 10be
00000210: efe1 043e 2301 a4bd 62ee 413c e36b 303d
00000220: 6a3c 1e3d 23bf 20be ff8b 013d 2151 10be
00000230: c459 963d a364 b5bc 0d0c de3d 357c 6a3d
00000240: 2f77 c6bd 9f22 8f38 2863 21bd a74b 29bd
00000250: df7e bc3c d734 a63d 6276 f8bc 652d 133e
00000260: bc25 2bbd 10db 273e dcc4 29bd 0fa0 10be
00000270: 8b18 0fbd 6fe6 f33d 83dc 013d d764 6f3e
00000280: a656 a6bd 0300 11be ca12 5cbd ffe5 df3d
00000290: 6e79 a53d 511e d03c 4884 89bd 5cf1 533d
000002a0: 659b 89bd ce16 23bd f246 a7bc b289 13be
000002b0: 402c e63d aac8 89be 77d1 09bd 9b47 a4bd
000002c0: d4f2 1fbe fd49 b5bd 4fc5 cabb e2d7 923d
000002d0: 03d2 cd3e b838 bfbd c107 613e 9b13 af3b
000002e0: bfff 43be 35b3 30be e644 b33d e9d4 cd3c
000002f0: 0826 28be 063b 9b3d 6adc 1abe 18c0 7abe
00000300: 7186 533d 669d 29be 6790 0fbe ab87 c83d
00000310: 9318 123e cf85 383e 4681 843e 6a08 e73d
00000320: 5619 12bd c203 d13c 1183 8ebc 5654 f83c
00000330: 3877 cb3e 960b af3c fed0 8d3d 806c 25bd
00000340: 5f8f 483d b0e6 853e 64fb 023e 2a1c 3ebe
00000350: 454e fd3b 5e01 003a 97bc afbe 8eaf 2abe
00000360: 4b82 c53e 54b4 fc3c 3b69 77be d2c5 713e
00000370: 5b8a 9c3a 133f cdbd 7f77 d1bd eae0 6fbe
00000380: 717e 43be 3bfd 7eba 5c2c d1bc fc13 903c
00000390: b4fd b73e 2b0b bf3d 7279 14be 5d94 2dbe
000003a0: 38a3 c6be cb94 80bb c92d 183e aa9c 2e3e
000003b0: 565d f43e e2f3 84be 9b1e 2a3d 64ca 99bd
000003c0: 0504 06be 8c1a 433e dcf9 ca3c efb5 393e
000003d0: 11e1 ab3e 0653 4bbe 4c97 583d 2ed8 a8bd
000003e0: 1661 cc3d 28e4 28be d48a 07be 0306 9bbc
000003f0: 8a10 2abc f942 4f3d c843 8cbd 3de1 883b

std.constant4 f4 [34, 102]
-0.037847225 0.012876277 -0.12965144 -0.098757245 -0.15594675 -0.08739587 -0.21223472 -0.083815806
-0.010819182 -0.04001377 0.09506366 -0.08704146 0.023433434 -0.11399549 -0.15410557 0.052117024
-0.11205228 -0.17142716 0.1491682 -0.20361209 -0.120884635 0.08901886 -0.19351952 -0.052364808
-0.18267365 0.048001986 0.06356859 -0.08748254 0.1817913 -0.20382382 -0.09074038 0.05699792
0.0905455 -0.053395186 -0.12014215 -0.025077075 -0.20719199 -0.15749265 -0.21007615 0.027881058
-0.03592454 0.013319952 -0.014373829 0.054415353 -0.01927832 -0.041904274 0.09876079 -0.1589594
-0.14111467 -0.21277179 -0.065608025 -0.20955838 0.14008148 0.10262237 -0.01785636 -0.1582332
0.11472198 -0.22420415 0.05178058 0.1741174 -0.20497474 -0.1251608 0.08425307 -0.0910253
-0.20449838 -0.034437746 0.09864208 -0.11556193 -0.13715778 -0.06659811 0.11914278 0.11270579
-0.1793862 -0.25146568 0.022546686 -0.058658954 0.01776948 0.09770058 0.15467355 0.03718015
-0.032865398 -0.08701366 -0.16102651 0.07285584 0.13097566 0.06784586 -0.105948105 -0.20717706
0.15204978 -0.10072686 0.061700273 -0.019174121 0.068392 -0.0683105 -0.014282025 -0.011806224
-0.21816337 0.06734783 0.08940561 0.1226135 0.025156934 -0.00033474335 0.30333242 -0.06059475
-0.14271872 0.20723003 0.095624164 0.23106742 -0.20949875 0.16082133 0.11852136 0.07626735
-0.2512543 0.049001817 -0.17946003 0.1316965 -0.2352078 0.07896107 -0.16560024 -0.13117333
-0.24910736 -0.36409566 -0.015508908 -0.14032708 -0.031025324 0.1520641 -0.09732061 0.24699095
0.11910521 0.5383658 0.02924108 0.09484667 -0.20112832 0.114902295 0.16135989 0.30402935
-0.18233912 -0.18689875 0.2638238 -0.23219517 0.11910485 -0.13577189 -0.1929316 0.22590594
-0.27221593 0.091967836 0.10664635 -0.34528363 0.18064076 -0.24491139 0.15273851 -0.2113578
-0.093197696 0.22721148 -0.061856564 -0.19295779 0.07352518 0.016504481 0.18973672 0.24767126
0.30168346 0.082105175 0.0941471 -0.08087153 0.08534279 0.20823483 -0.120352715 -0.22693568
0.060842175 0.056502994 0.25209945 0.2310025 0.0038962392 -0.015849255 -0.17947805 -0.05083693
0.21578869 -0.32551217 0.015687885 0.3600173 -0.102131374 0.07082581 -0.19156773 0.2351908
0.011847319 0.11856729 0.06586311 0.057731837 0.09442204 0.048213284 -0.057874754 0.09305214
-0.32723248 -0.034777083 -0.261785 -0.017974395 0.1752433 -0.04411713 -0.017932791 -0.042845044
-0.08735604 -0.09654905 0.24052063 -0.06631135 -0.18908748 0.28884208 -0.08798489 0.17994618
0.14304684 -0.17321564 0.26724115 0.0026289937 0.19104056 -0.08518032 0.3132181 0.01472555
0.21008573 0.09802894 0.3149045 -0.15229651 0.21252684 0.09844951 -0.07925202 0.29722127
0.083118126 -0.11662971 0.38425636 -0.04170469 0.3180953 0.3303665 0.4460167 -0.3271217
0.32952636 -0.19446836 -0.16035092 -0.09190578 -0.12151386 0.051778108 -0.15608329 0.37383044
-0.25864878 0.3116564 0.070453875 -0.07966222 0.24559988 -0.26615822 0.2146881 -0.14757961
0.15941484 0.16551471 0.03192015 0.24864437 -0.031296074 0.117171556 -0.13054611 -0.06777108
00000000: b105 1bbd 05f7 523c 59c3 04be 3d41 cabd
00000010: 81b0 1fbe 9bfc b2bd 0f54 59be 9fa7 abbd
00000020: f042 31bc 7be5 23bd bcb0 c23d cb42 b2bd
00000030: 79f7 bf3c 7876 e9bd dacd 1dbe a978 553d
00000040: aa7b e5bd 9a8a 2fbe 8cbf 183e b07f 50be
00000050: 5d92 f7bd 854f b63d fb29 46be 7b7c 56bd
00000060: cd0e 3bbe bb9d 443d 4030 823d 0c2a b3bd
00000070: 8027 3a3e 31b7 50be 18d6 b9bd a776 693d
00000080: eb6f b93d e9b4 5abd 160d f6bd 706e cdbc
00000090: 232a 54be c145 21be 341e 57be d166 e43c
000000a0: 9c25 13bd ee3b 5a3c 3580 6bbc a2e2 5e3d
000000b0: 91ed 9dbc d1a3 2bbd 1943 ca3d 41c6 22be
000000c0: 5d80 10be d9e0 59be 805d 86bd 7996 56be
000000d0: 8571 0f3e ad2b d23d 8047 92bc e207 22be
000000e0: 5cf3 ea3d c695 65be e017 543d d54b 323e
000000f0: e6e4 51be 272a 00be e08c ac3d 796b babd
00000100: 0668 51be 980e 0dbd dc04 ca3d bcab ecbd
00000110: 1773 0cbe 9764 88bd 2101 f43d 4bd2 e63d
00000120: 04b1 37be 1cc0 80be d4b3 b83c 5f44 70bd
00000130: 4d91 913c 3e17 c83d be62 1e3e 374a 183d
00000140: de9d 06bd 3834 b2bd 22e4 24be 7135 953d
00000150: 7c1e 063e c5f2 8a3d 52fb d8bd 3926 54be
00000160: f0b2 1b3e e249 cebd 6db9 7c3d 0c13 9dbc
00000170: 1b11 8c3d 60e6 8bbd 28ff 69bc e46e 41bc
00000180: 3866 5fbe a9ed 893d 4a1a b73d c91c fb3d
00000190: ea15 ce3c 7e80 afb9 634e 9b3e 3332 78bd
000001a0: db24 12be 1c34 543e 9ad6 c33d f09c 6c3e
000001b0: d786 56be 59ae 243e 54bb f23d 0e32 9c3d
000001c0: 67a4 80be 21b6 483d 5fc4 37be 73db 063e
000001d0: 50da 70be 57b6 a13d 1c93 29be 4d52 06be
000001e0: 0016 7fbe bf6a babe 1319 7ebc e7b1 0fbe
000001f0: d228 febc b1b6 1b3e 0750 c7bd 32eb 7c3e
00000200: 6fed f33d 57d2 093f fd8a ef3c f93e c23d
00000210: 95f4 4dbe e551 eb3d 873b 253e bca9 9b3e
00000220: 1bb7 3abe 6362 3fbe ea13 873e 92c4 6dbe
00000230: 3eed f33d c907 0bbe dd8f 45be e353 673e
00000240: e35f 8bbe a259 bc3d 6769 da3d 04c9 b0be
00000250: e4f9 383e 0dca 7abe 7c67 1c3e 2e6e 58be
00000260: 6fde bebd 20aa 683e 4f5d 7dbd ba96 45be
00000270: 5f94 963d 6834 873c 584a 423e 899d 7d3e
00000280: 4176 9a3e c226 a83d 32d0 c03d f99f a5bd
00000290: 33c8 ae3d 833b 553e 7c7b f6bd d461 68be
000002a0: a535 793d af6f 673d 2e13 813e eb8b 6c3e
000002b0: 0c58 7f3b 4cd6 81bc 18c9 37be 623a 50bd
000002c0: b6f7 5c3e 88a9 a6be e183 803c 3054 b83e
000002d0: 412a d1bd 1f0d 913d 552a 44be dbd5 703e
000002e0: 421b 423c 68d3 f23d 3de3 863d 3878 6c3d
000002f0: 5860 c13d 4b7b 453d 140e 6dbd 1f92 be3d
00000300: 048b a7be 6a72 0ebd af08 86be 0a3f 93bc
00000310: fb72 333e 2ab4 34bd cae7 92bc 497e 2fbd
00000320: b9e7 b2bd 82bb c5bd 0a4b 763e 3fce 87bd
00000330: 26a0 41be 1ce3 933e 6c31 b4bd d043 383e
00000340: df7a 123e 715f 31be d5d3 883e 324b 2c3b
00000350: 23a0 433e 0573 aebd 1f5e a03e 6f43 713c
00000360: b720 573e 66c3 c83d 2a3b a13e 9ef3 1bbe
00000370: a3a0 593e e69f c93d e24e a2bd 632d 983e
00000380: d639 aa3d 8fdb eebd 40bd c43e 89d2 2abd
00000390: 63dd a23e cc25 a93e 4d5c e43e 7f7c a7be
000003a0: aeb7 a83e b722 47be 0833 24be 1939 bcbd
000003b0: 42dc f8bd 4815 543d 4cd4 1fbe b466 bf3e
000003c0: 9d6d 84be 6d91 9f3e 1f4a 903d f225 a3bd
000003d0: 897e 7b3e e445 88be 33d7 5b3e 1c1f 17be
000003e0: a53d 233e b07c 293e b4be 023d a19c 7e3e
000003f0: 5030 00bd a4f7 ef3d e1ad 05be 90cb 8abd
